pytorch/实战/cifar_net.pth (torch, 251604 bytes, 10 tensors)

conv1.weight f4 [6, 3, 5, 5]
00000000: 936f d4bd fa4e 52bd a89a 91bd 48bb 6d3d
00000010: 717c 8bbd c8c4 573d 165c 0dbd c091 343c
00000020: ec13 293d e812 a33d 528a 99bd e386 c1bd
00000030: 4413 6e3d 7261 c43d 60da d4bc a8c7 d1bd
00000040: 64e5 04bd 6680 8a3d ac1d 0ebd b0a9 31bd
00000050: 1c25 e8bd 14bf 9fbc 6088 d0bd caee 95bd
00000060: 1c6c d53d 00b5 9cb9 f808 8a3c 50a1 d93c
00000070: b2ff a63d 40a8 e93c 4467 493d e287 0abd
00000080: a0c2 d43b d411 eabd 288b afbc baa2 9abd
00000090: 163a 803d c4de f3bc 6026 1e3b c419 c43d
000000a0: 6818 e2bc 24a9 db3d b484 cabc 20b6 613b
000000b0: 3c8c 9e3d 0044 7339 244f 613d b0d3 c83d
000000c0: c09a c3bb 6840 cd3c 40ea c4bd b863 49bc
000000d0: 7898 943c 0087 4c3c d8da e03d 186a be3d
000000e0: d9fe c1bd fe81 9d3d 4058 9dbd e8c8 113d
000000f0: da81 84bd 0173 b0bd fa6b ec3d ecb8 a5bd
00000100: b8b4 19bd 78db 9abd c0b8 543d fe57 bfbd
00000110: 0c7b 923d c8fe ae3d 08d8 0c3c 512f 6ebd
00000120: ee17 12bd 2017 6fbd 4028 693c be95 b53d
00000130: 349b 3a3d 50e9 8b3d 1165 b3bd 9845 863d
00000140: 6e05 d73d 8b26 73bd 007a d9ba 28c1 0f3c
00000150: c081 d03b c8d4 97bc 202d 803d 9c29 5e3d
00000160: c806 a03d eeda 12bd 002d 133c 507f 963c
00000170: bb94 bcbd 8c3e b2bd 64ac c83d 985c 013c
00000180: d09e 3dbd a845 8ebc fc0d ec3d d835 1a3d
00000190: 58c3 913d 6e74 03bd 44aa 643d a065 5f3d
000001a0: 6b2e e1bd 4ae5 d3bd 0005 98bd d70e ddbd
000001b0: 1056 1a3d 8411 09bd eca0 9b3d 28c4 753d
000001c0: bcf8 9ebd de5a bbbd 30e9 83bb 6c85 323d
000001d0: a022 423c 2eec 81bd 5a67 afbd 84f9 bebd
000001e0: 78c3 9fbd 9621 a3bd 30dc 2a3d 668a 4abd
000001f0: 68e9 c43d 2632 7dbd ce5a ccbd b8b4 963c
00000200: bc34 68bd 0809 2cbd 0864 813d b002 a6bc
00000210: 3010 503d e44a 1e3d 8040 563c 1cc2 22bd
00000220: c6ff 98bd 90ea 903d f4f6 683d 103d 87bd
00000230: 504a 95bd c498 553d 0a55 a53d b0a5 133d
00000240: d002 ab3c c880 763d dedf 16bd 1e9a dbbd
00000250: 6009 f0bb 608c cbbb 20fe 4c3b 9c76 cabd
00000260: 54c2 ab3d 98fa eabd d055 4bbd 7098 013c
00000270: 5a7f 84bd 204f 003b bc8f 673d c820 f4bc
00000280: dc60 2f3d 8cb5 79bd bfb7 dcbd a887 fc3c
00000290: 476c 83bd a05d fe3c fca7 a13d 78d4 1fbc
000002a0: d443 b5bd 08ca b23d 1e5f c63d 7c0c 893d
000002b0: ec8c 8fbd f8e4 9d3c 307f 2f3c fcf2 babc
000002c0: 2404 ab3d 4f52 debd 62b2 a13d f812 2ebd
000002d0: 2c25 a8bd 202f 553d 6096 c63d 80da be3b
000002e0: b426 2cbd d8fc e6bc 1c6c bc3d e065 923b
000002f0: b82f d0bc b2cd 8bbd 08d6 8a3d 3062 9f3d
00000300: 0c03 5e3d deec 813d 98e7 b83d 484f 7e3d
00000310: 684d 33bd aedf a33d c02f 46bc b46f c7bd
00000320: 6648 d93d 16c7 a93d 9098 ebbd a09e 173d
00000330: 9c47 ccbc 62b6 8ebd 2e87 c13d ecb0 cf3d
00000340: 7226 5ebd 2444 9cbc d8d4 ecbc b8b9 92bc
00000350: cc11 743d 6cff 333d 5df6 b8bd 04ea e0bd
00000360: 6e87 cb3d acd1 afbc a0ec d0bd 8825 b4bd
00000370: 5ce1 78bd d08f b4bb 8c6e 133d 6c7a 1b3d
00000380: 50d9 143d 1ecf e0bd 2022 07bb 53ad 92bd
00000390: 0061 1bba 4a2a d5bd 083f 893d 2e18 893d
000003a0: ae06 dabd 9429 5a3d 3c30 c43d 0831 083d
000003b0: e027 933c e25c acbd 78d8 343d 24d8 c7bd
000003c0: 405c 9cbd 50a3 debb 71d6 7fbd 6ccf 793d
000003d0: 70d7 f73b 5049 fcbc 039c 8abd a084 143d
000003e0: 48fb be3d 20cc 41bd 7044 aabc 0a2e b8bd
000003f0: aeda bc3d 8e91 ebbd a098 8e3c d0d6 b4bb
-0.103728436 -0.05134485 -0.071095765 0.058039933 -0.06810845 0.0526779 -0.034511648 0.011021078
0.041278765 0.079625905 -0.07497086 -0.09449556 0.058123842 0.09588899 -0.025983036 -0.102431595
-0.032445326 0.06762771 -0.034696266 -0.043374717 -0.11335203 -0.019500293 -0.101822615 -0.07320936
0.10421011 -0.00029889494 0.01684998 0.026566178 0.08154239 0.02852261 0.049170747 -0.033820994
0.0064929277 -0.11429182 -0.02142866 -0.07550569 0.06261079 -0.029769309 0.002413176 0.09575227
-0.027599528 0.107256204 -0.02472148 0.003444083 0.07741591 0.00023199618 0.055007115 0.09806001
-0.0059693754 0.025055125 -0.09614992 -0.012291841 0.018139109 0.012483358 0.10979241 0.092975795
-0.094724365 0.0769081 -0.07682848 0.03559199 -0.0647008 -0.08615685 0.115440324 -0.08091912
-0.037525862 -0.075613916 0.051934004 -0.09342955 0.071523756 0.085446894 0.008596428 -0.058150593
-0.035667352 -0.058371663 0.014230788 0.08866452 0.04555817 0.0683161 -0.08759511 0.06556243
0.104990825 -0.05936293 -0.0016592145 0.008774079 0.0063631237 -0.01853408 0.06258607 0.0542389
0.078137934 -0.03585332 0.008982897 0.018371254 -0.092080556 -0.08703336 0.09798506 0.007895611
-0.046294034 -0.017367199 0.11526105 0.037649006 0.07117337 -0.032093458 0.05582644 0.054540277
-0.10995182 -0.10346468 -0.07422829 -0.10793846 0.03767973 -0.03346397 0.07599053 0.060001522
-0.07762286 -0.09148191 -0.004025601 0.043584272 0.011849076 -0.06343876 -0.085646346 -0.09324935
-0.078009546 -0.079653904 0.041713893 -0.049448393 0.09614831 -0.061815403 -0.09978257 0.01839672
-0.056690916 -0.0420008 0.063179076 -0.020264953 0.050796688 0.03864564 0.013076901 -0.0397359
-0.0747066 0.07075989 0.056876138 -0.066034436 -0.072895646 0.05214764 0.080728605 0.036046684
0.020875365 0.06018141 -0.03683459 -0.10722755 -0.0073253363 -0.0062118024 0.00312794 -0.09885904
0.083866745 -0.11473578 -0.049642384 0.007909879 -0.06469603 0.0019578412 0.05653356 -0.029800788
0.04281698 -0.060964152 -0.10777234 0.030826405 -0.06417137 0.031050503 0.078933686 -0.009755246
-0.08850828 0.08729941 0.09686111 0.06691834 -0.070093006 0.01927422 0.010711476 -0.022820942
0.08350399 -0.10855543 0.07895352 -0.04249856 -0.08210215 0.052046895 0.096966505 0.005824387
-0.042029098 -0.028196737 0.09200308 0.004467711 -0.02541338 -0.06826343 0.067791045 0.077824
0.054202124 0.06344007 0.09028548 0.062087327 -0.043774992 0.08001648 -0.012096345 -0.097381026
0.10609512 0.08289926 -0.11503708 0.03701651 -0.02493649 -0.069683805 0.094496116 0.10141167
-0.054235883 -0.01907546 -0.028910086 -0.017910823 0.059587285 0.04394476 -0.09031365 -0.10982135
0.099379405 -0.021462284 -0.10201383 -0.08796221 -0.060761794 -0.005510308 0.035994098 0.037958547
0.036340058 -0.109770045 -0.0020619705 -0.07161965 -0.0005927235 -0.104084566 0.067014754 0.06694065
-0.10645805 0.05326231 0.095795125 0.033249885 0.01796335 -0.084161535 0.044151753 -0.097580224
-0.07634783 -0.0067943707 -0.062460367 0.06098883 0.007563524 -0.030796677 -0.06768038 0.036259294
0.09325272 -0.04731381 -0.020784587 -0.08993156 0.09221397 -0.11502372 0.017406762 -0.0055187717

conv1.bias f4 [6]
00000000: 5008 10bd 0871 46bd de13 8ebd 886f af3c
00000010: 1a8f c53d d0f3 be3b
-0.035164177 -0.04844764 -0.06937383 0.021415487 0.09646435 0.0058274046

conv2.weight f4 [16, 6, 5, 5]
00000000: c001 593d 46d5 6dbd 9b95 9cbd 822d 8dbd
00000010: 94fd 6d3d c867 f03c 405d 27bc d8d4 2b3c
00000020: 7ea0 943d 40e4 553d f0ef a63b 209e 883d
00000030: e81c 81bc b2bb 973d 2041 4c3c 2d69 36bd
00000040: 7046 2a3c e02a a43c ba92 96bd 4225 53bd
00000050: f6c6 70bd 3af1 abbc 689f 3b3d 809b 373d
00000060: b80e 183c ac9a 5e3d 50c6 a83b 5ca0 5a3d
00000070: c930 92bd 82ed 9cbd 00fe b939 8151 4fbd
00000080: 2da5 23bd d6f0 79bd 814a a5bd 7d77 a3bd
00000090: de38 88bd f49c 4f3d 6eb6 0bbd 8e9b 9e3d
000000a0: 74b8 973c d80c 5a3d cec0 9a3d 808a 1cbc
000000b0: 4062 003b a03e 873c 4088 76bb d017 fb3c
000000c0: c191 23bd 0072 91ba 1c79 9b3d cd50 a0bd
000000d0: 5ef0 35bd 4283 2a3d b0b4 7cbc 4f48 a2bd
000000e0: c636 1d3d c77a 11bd 1c06 653d f839 d93c
000000f0: a434 233d 44a0 83bd 2919 a4bd c36d 2fbd
00000100: 48df 483d c6d1 983d f8f9 b33c f063 843d
00000110: 41b0 70bd b848 7d3d 78d6 9ebc 12b3 5bbd
00000120: 007c 8fba c08a 0cbc 78db 78bc 383c 053c
00000130: 4820 153c 586a 07bd d0a4 a83c eeca 113d
00000140: 4c83 92bd 7667 5abd 7ac1 943d f0c4 93bb
00000150: abd1 4dbd fc74 95bc e47c 54bd 40ac e73a
00000160: 64b6 dbbc d4db 34bd e0ba 583b 7c8a bcbc
00000170: 0437 493d e0e5 5c3c 6a6d 8bbd d8d4 153c
00000180: e844 8bbd b005 94bc a2ad 8d3d 40ab 74bb
00000190: db89 94bd c440 64bd 0c14 473d c89e b63c
000001a0: 3492 563d dc9d 5a3d 92aa 2abd 0219 8dbd
000001b0: 546e 1abd 3e72 133d ae7c aabc 4c54 69bd
000001c0: 3e1f 0f3d fc2b 3dbd 2e74 a13d 9a4d 18bd
000001d0: 0045 03bc 3067 dbbc 8cd0 053d 52d5 78bd
000001e0: 80f7 97bd 479e 09bd 53dc 9fbd 4ddd 43bd
000001f0: 5ca3 61bd 04dd 923d e0fd f6bb 80b0 b0ba
00000200: e01e a33d d03b a33c b45f 843d 4c16 883d
00000210: 9414 9cbd e760 8fbd 9006 7b3d e023 a03b
00000220: 1c52 05bd 9013 a63b f095 9e3b 34a3 3d3d
00000230: f8a6 323c 9e1e 943d a6b9 c0bc afa3 83bd
00000240: 04ba b23c d5fb 0bbd 10a4 09bd d887 60bc
00000250: 00a2 96bb c0e1 8fbd e8a3 6e3c e6db 6dbd
00000260: c00d dd3a 3a72 8bbd fe92 0fbd 240b 97bc
00000270: a4e8 f83c 8e60 b4bc 709b a13d 1096 cbbb
00000280: e3ec 83bd 60ce e83c 747f 8ebc 12d9 e0bc
00000290: 405a 963d 9701 47bd d87a 0f3c be22 293d
000002a0: 906a 92bd ae58 b6bc 793f 05bd d061 753c
000002b0: a49c 863c af3f a3bd 5c71 b9bc 5c77 93bd
000002c0: 98cc 5c3d 2464 7d3d 54bc 173d f832 a03c
000002d0: 509b 443c c01c 23bd ec02 14bd b641 a6bd
000002e0: 5222 2fbd e8ec 5fbc 0ca2 9b3d 7058 8a3c
000002f0: 6067 3dbc 2014 eabb e0fb 19bd 5c80 553d
00000300: 1d8f 43bd 34d1 463d e7c5 45bd 7081 3a3d
00000310: fe98 1bbd 80c7 603a 25bb 6cbd b042 b7bc
00000320: 4b7d 01bd 181b 38bd 84fb f73c 98df 583d
00000330: 80a0 35bc b853 363c ccc1 823c 2012 d13c
00000340: f87b 733d e0fa d1bb 74b1 2d3d 2886 f0bc
00000350: 22d0 1d3d b8e2 62bc 00e2 623d 00b8 e338
00000360: 4422 6cbd e02c 8b3c 2ada 2fbd 0059 84bd
00000370: 1059 aabc d074 bd3c c05c 9b3a 9e7e 843d
00000380: c8cc 91bd c80b 49bd 9015 8abb cf51 08bd
00000390: 6ae9 c2bc 847d e93c 800c b8ba ac91 a53d
000003a0: 3e0a e4bc b543 8fbd 3545 3abd 5cd9 2d3d
000003b0: 44db 493d c0f5 903c 443e 953d 189e 793c
000003c0: a5f2 21bd 088a 9d3d 4888 68bc a2bd a3bd
000003d0: f399 3abd 981b 22bc 92c0 86bd a01b 98bd
000003e0: 6a31 063d bc95 833d 7a3c 8abd 1ad8 e1bc
000003f0: 267a f3bc b88e 903d 7cd2 31bd c032 75bc
0.052980185 -0.05806472 -0.076457225 -0.068934456 0.05810316 0.029346362 -0.010215104 0.010487758
0.07257174 0.05221963 0.0050945207 0.06670785 -0.015760854 0.07408847 0.012466699 -0.044533897
0.01039277 0.020039976 -0.073522046 -0.051549204 -0.058783494 -0.02098905 0.04580632 0.04482603
0.009280853 0.054346725 0.005150594 0.053375587 -0.07138211 -0.076624885 0.00035475194 -0.050614838
-0.039952446 -0.061020695 -0.08070851 -0.07981775 -0.066514716 0.05068679 -0.034109525 0.077445135
0.018520571 0.053234905 0.07556306 -0.009554505 0.0019589812 0.016509354 -0.0037617832 0.030651003
-0.039933924 -0.0011096597 0.07591459 -0.078279115 -0.044418685 0.041629083 -0.015423939 -0.07923948
0.038382314 -0.03551748 0.05591403 0.0265169 0.039845124 -0.064270526 -0.080126114 -0.042829286
0.049041063 0.07461886 0.02196978 0.06464374 -0.05876184 0.061836928 -0.019389376 -0.05363757
-0.0010946989 -0.008578002 -0.015189044 0.008132033 0.009101935 -0.0330604 0.020586401 0.03559392
-0.07153949 -0.053321324 0.07263465 -0.0045095608 -0.050248783 -0.018244259 -0.051876917 0.0017675236
-0.026820369 -0.044154957 0.003307037 -0.023015253 0.049124733 0.013482541 -0.068079785 0.009144984
-0.06800252 -0.018069118 0.069178835 -0.0037333518 -0.07252856 -0.055725828 0.048603103 0.02229251
0.052385524 0.053373203 -0.041666575 -0.068895355 -0.037702873 0.03599762 -0.020811405 -0.056965157
0.034941904 -0.046184525 0.07883488 -0.03718338 -0.008012056 -0.026782602 0.03266959 -0.060750313
-0.07420254 -0.03359821 -0.078056954 -0.04781847 -0.055087432 0.07171062 -0.0075375885 -0.0013480335
0.07964873 0.019925982 0.064635664 0.06644878 -0.076211125 -0.070009045 0.061285555 0.004887089
-0.03254901 0.00506825 0.0048396513 0.04629822 0.010904066 0.07232402 -0.023526024 -0.064277045
0.021817215 -0.034175713 -0.033603728 -0.013704263 -0.0045969486 -0.0702548 0.0145654455 -0.05807104
0.001686506 -0.06808896 -0.035052292 -0.01843793 0.03038437 -0.022018697 0.078909755 -0.006212957
-0.06441667 0.02841872 -0.017394759 -0.027447257 0.073414326 -0.0485855 0.008757316 0.0412929
-0.071492314 -0.022259083 -0.032531235 0.014976934 0.016432114 -0.07971131 -0.022637062 -0.072005
0.053906053 0.06186308 0.037044838 0.019555554 0.01199992 -0.03982234 -0.0361356 -0.08118002
-0.04275734 -0.013667323 0.07599267 0.016887873 -0.011560291 -0.0071435124 -0.037593722 0.052124366
-0.047743905 0.048539355 -0.048284438 0.045533597 -0.0379877 0.00085746497 -0.057795662 -0.022370666
-0.03161363 -0.044947714 0.0302713 0.05294761 -0.011085629 0.011128359 0.01596155 0.025521338
0.059444398 -0.0064080805 0.04240556 -0.029360846 0.03852857 -0.013847999 0.05539131 0.00010858476
-0.057649866 0.016989172 -0.042932667 -0.06462288 -0.020794421 0.02312699 0.0011853203 0.06469463
-0.07119137 -0.0490835 -0.004213996 -0.033281144 -0.023792941 0.028502233 -0.0014041811 0.08084425
-0.027836915 -0.06995336 -0.045476157 0.04244362 0.049281374 0.017695308 0.07287267 0.015235446
-0.039538044 0.07692343 -0.014192648 -0.07995154 -0.045556974 -0.009894274 -0.065796986 -0.07427144
0.03276197 0.06425044 -0.06749816 -0.027568866 -0.02972133 0.070584714 -0.043413624 -0.014965713

conv2.bias f4 [16]
00000000: 8642 853d 38ee b7bc f00e c5bb fccb 94bd
00000010: 800a 84bb a0e6 9bbc 6e19 41bd 5d20 66bd
00000020: 04ae 863d 889b a23c 583c 8dbc 3c97 d13c
00000030: 9ded 7dbd 2418 583d 38c5 2fbc 98da 4fbc
0.06506829 -0.022452459 -0.0060137436 -0.072654694 -0.004029572 -0.019030869 -0.047143392 -0.056183208
0.065761596 0.019849554 -0.017240688 0.02558481 -0.061994184 0.052757397 -0.010728173 -0.012686394

fc1.weight f4 [120, 400]
00000000: b381 d7bc 2a20 dfbc 4153 3f3d 34bf 37bc
00000010: 0f30 3e3d 00a6 fcbb 5a86 893c 2038 73bc
00000020: 4e84 ff3c 67c6 ddbc 32c4 17bd 11a9 3e3d
00000030: 904e e9bb 1dc8 abbc e53d 1f3d 2465 85bc
00000040: f77e 4c3d 7372 2abd f282 b33c 7f6c 2f3d
00000050: f8ab 18bc f0eb 16bd 10a1 c7bc 603b c73a
00000060: 806f 13bc 2c6b 2bbc 3d15 f1bc 5fb4 2dbd
00000070: f8f7 1dbc e83d 8d3b 0055 c639 24e7 6a3c
00000080: 811f 463d c5af 253d a2ea d03c 4cd3 38bc
00000090: acb3 61bc 7b8e 10bd b0a0 e03b d8f9 acbb
000000a0: 88af 013c f080 bbbb 8704 44bd 4aff bdbc
000000b0: 380d 063c 97f2 013d d830 f53b 3331 0f3d
000000c0: c095 923a 53ee 493d 96b3 db3c 9e58 b33c
000000d0: 67cc 46bd f01c bbbb 5008 80bb ba2b 84bc
000000e0: 13e2 1ebd 9be5 19bd 988d 283c f934 023d
000000f0: 90d1 f3bc 8c60 0cbd 9f18 1d3d 5722 45bd
00000100: a618 f93c 6746 d1bc 6848 d73b a2b0 e23c
00000110: 21a7 343d 45a1 2cbd 8ac1 9e3c 6a1e 17bd
00000120: 80ca 7bba 586a 47bd 9dd6 32bd 0a3e dbbc
00000130: 60ba 83ba a088 4abc 306b 9dbc 981a f0bb
00000140: 2800 24bc f7b2 383d 2208 f03c 8f28 40bd
00000150: 911d 023d afa4 41bd 18de d63b 6026 5a3b
00000160: bb43 173d 8749 d2bc 7700 9fbc c28e 833c
00000170: 004e 65b9 0c5c 96bc 0660 06bd a390 37bd
00000180: f053 f3bb 1448 63bc 92b4 ac3c 6302 283d
00000190: a7bb 293d c0c0 9f3b 07c9 2b3d c017 e03a
000001a0: 60fa e63a f6d2 ab3c d776 4c3d 001d 0ebd
000001b0: 0306 0e3d 5eea 0dbd c6b3 cb3c d895 9d3b
000001c0: 5852 e8bb 90e2 8ebc 94f2 06bd 058b 27bd
000001d0: a81a 873b 0d51 27bd c168 183d d2a1 e73c
000001e0: 715e 323d db09 42bd a3ac 21bd 9a77 c1bc
000001f0: 370f b9bc 8622 03bd 8043 a3bb b04e ff3b
00000200: 68ca 9f3b a0a9 7dbb 28e6 30bd 68d6 0ebc
00000210: a092 17bb c5e2 43bd 8dc7 3cbd c06f 2ebd
00000220: 8255 933c 3604 27bd 99b0 4b3d a2ef 1abd
00000230: 58b3 d93b d4af 82bc d0a4 323b eefb a63c
00000240: 7e17 853c f282 13bd 05cd 253d 57d2 a8bc
00000250: 9b5a 4a3d 5c99 8cbc 30c6 a2bb 4032 45bd
00000260: 884a 22bc 4828 21bd 8fa8 1b3d 6809 8b3b
00000270: 5e68 20bd 36af 0fbd a87b 8e3b 2491 5b3c
00000280: ebdd 163d 0055 32bb a8e7 24bd c67a cf3c
00000290: ec38 243c 8dac d1bc 5953 3a3d b2c0 b53c
000002a0: 5b7c 45bd bfbe 3abd 3828 073c 508c 233b
000002b0: 3232 cd3c 7131 243d 301a 413b 6843 1b3c
000002c0: 6940 383d 7083 d23b dd2f 273d 3da8 f6bc
000002d0: b05c d2bc a34f 203d ab8a 093d 59e8 353d
000002e0: ecd5 13bc e2f5 06bd cc3a 433c 709b f13b
000002f0: 59c6 183d 8217 07bd d2c8 993c 3744 bdbc
00000300: bb3b 36bd 2e3a fb3c d4c7 2f3c c269 833c
00000310: c55a 213d 4660 21bd 8021 173a dd19 9abc
00000320: c8be 58bc 42f8 953c 0d01 2fbd e034 563b
00000330: 9dc6 00bd c89b 2ebd 80b2 243c 200f 0f3b
00000340: a0e9 933a c0ef 5cbc c948 433d eadc a53c
00000350: 402f b4bb 606e c5ba 983e 2b3c e04a 1fbb
00000360: d015 f2bc f63e 9d3c 1051 b6bb 39e3 443d
00000370: f2f5 993c f15c 123d 6ea1 cd3c 5491 2d3c
00000380: d825 42bd 87f4 0d3d d00d 0dbd a67d c33c
00000390: 30d4 5c3b 6581 21bd c688 f43c c9cb 0c3d
000003a0: 001e f3ba ed39 b5bc 554d 333d 2b12 48bd
000003b0: 2c93 643c 004c 65bc e254 ed3c 8672 f93c
000003c0: acef 2f3c 2f77 313d 179e e7bc 8f65 3ebd
000003d0: af28 203d 4acf cebc cab2 e4bc 0afc f73c
000003e0: 36a8 c73c 595a 353d 0254 8f3c f957 453d
000003f0: 3146 173d ef90 34bd 4dea a4bc a40e 563c
-0.026306963 -0.027237017 0.046710256 -0.01121502 0.04643255 -0.0077102184 0.016787697 -0.014844924
0.031191017 -0.027072145 -0.03705234 0.046547953 -0.007119961 -0.020969445 0.038877387 -0.01628358
0.04992577 -0.041613054 0.021913026 0.04282808 -0.009318344 -0.0368461 -0.024368793 0.001520019
-0.008998752 -0.0104625635 -0.029429073 -0.042408343 -0.00964164 0.0043103583 0.00037828833 0.014337335
0.04836989 0.04045083 0.025502507 -0.011280846 -0.013775747 -0.03529213 0.006855093 -0.005278807
0.007915385 -0.0057221577 -0.04785588 -0.02319302 0.0081818625 0.031725492 0.0074826293 0.03495903
0.0011183545 0.04929955 0.026819032 0.021892842 -0.048534777 -0.0057102367 -0.003907241 -0.016134132
-0.03878982 -0.037572484 0.010287665 0.0317888 -0.029763013 -0.03427176 0.03835356 -0.048128452
0.030407261 -0.025546266 0.006569911 0.027672116 0.0441047 -0.042145986 0.019379396 -0.03689424
-0.0009605065 -0.0486854 -0.043661702 -0.026762981 -0.0010050051 -0.0123616755 -0.01921615 -0.007327389
-0.010009803 0.04509255 0.029300753 -0.04691368 0.031766478 -0.047276195 0.0065572374 0.0033287033
0.036929827 -0.025669826 -0.019409401 0.016059283 -0.00021868199 -0.018354438 -0.03280642 -0.04481567
-0.0074257776 -0.013872165 0.021082196 0.0410179 0.041438725 0.0048752725 0.04193976 0.0017096922
0.0017622225 0.020974617 0.049918022 -0.034695625 0.034673702 -0.034647338 0.024865996 0.0048091225
-0.0070898943 -0.017442018 -0.032946184 -0.040904064 0.0041230507 -0.04084878 0.037209276 0.028275404
0.043547098 -0.04737268 -0.03947128 -0.0236166 -0.022590263 -0.032015346 -0.004982412 0.0077913627
0.0048764236 -0.003870584 -0.043188244 -0.008718111 -0.0023128167 -0.047823686 -0.046088744 -0.04258704
0.01798511 -0.0407755 0.049728964 -0.037826188 0.006643694 -0.015952982 0.002725888 0.020383801
0.016246554 -0.03601355 0.040478725 -0.02060811 0.049402814 -0.017162971 -0.0049674734 -0.048143625
-0.009905465 -0.039345056 0.038002547 0.0042430647 -0.039162032 -0.035079204 0.004348237 0.013401303
0.03683273 -0.0027211308 -0.040259987 0.025327098 0.010023337 -0.025594974 0.045489643 0.02218661
-0.048214298 -0.045592066 0.008249335 0.002495546 0.025048349 0.040086213 0.0029465072 0.00947652
0.0449833 0.00642436 0.04081713 -0.03010952 -0.025678962 0.039138447 0.03357951 0.044411037
-0.009023171 -0.032949336 0.011915874 0.007373266 0.037298534 -0.032981403 0.018772516 -0.023103816
-0.044490557 0.03066739 0.010728795 0.01604164 0.039393205 -0.039398454 0.0005765185 -0.01881116
-0.01322908 0.018306855 -0.04272561 0.0032685325 -0.031439412 -0.042629033 0.010052323 0.0021829084
0.0011284836 -0.013484895 0.047676835 0.020246942 -0.0054987967 -0.0015062802 0.010451935 -0.0024306104
-0.029551417 0.019195061 -0.0055638626 0.04806826 0.018794034 0.035733167 0.02510139 0.010593731
-0.04739937 0.034657028 -0.034437 0.023863625 0.003369581 -0.03943004 0.029850375 0.034374032
-0.0018548369 -0.022122348 0.04377492 -0.04884545 0.013951104 -0.013995171 0.02897114 0.030450117
0.010738295 0.043326553 -0.028273625 -0.046483573 0.0391013 -0.025245328 -0.027917285 0.030271549
0.024372201 0.044275615 0.017496113 0.0481796 0.036932174 -0.044083532 -0.020131255 0.013065014

fc1.bias f4 [120]
00000000: 85e4 19bd f4d2 3e3c b4ee 06bc 80cc 173a
00000010: 1c34 6e3c 2cc8 0f3c fd21 2cbd 699e 213d
00000020: 1b3a 1abd bd8c 06bd 69f6 1a3d 1f16 443d
00000030: b2e3 8b3c 96f5 983c 6a09 4bbd b2ff f13c
00000040: f7dc a3bc 6ad2 bc3c 40cb a33a 67da 99bc
00000050: 5662 87bc 9862 f6bb aa56 b03c 2a8c dbbc
00000060: b0f7 6ebb 8ac3 ad3c 3f6d 45bd d12f 433d
00000070: e80d 62bc 43ee 3b3d a8a4 17bc 4ce5 80bc
00000080: a2d1 b43c b0c2 e23b b6e8 23bd d8da fe3b
00000090: 8c89 67bc c0d7 21bd 8f5c 3fbd e7cd e9bc
000000a0: 14b9 0fbc 9ec3 ad3c b21c ce3c d47d 483c
000000b0: 0e1d ce3c 6da0 debc daba 83bc b391 4a3d
000000c0: def5 00bd 0a0b d63c 137e 093d 90c5 d0bc
000000d0: 9024 debc b3dd 14bd 9d35 aabc 91b9 0c3d
000000e0: 39eb 0e3d a089 19bc ce67 d43c 707b a8bb
000000f0: 8d37 e1bc 8023 5bbc 5138 333d 7d6e 3c3d
00000100: c79a f9bc b2b2 47bd 023e 9c3c 9e46 b93c
00000110: 500e a8bb 621d c93c 7025 bdbc b0c3 c0bb
00000120: 4f6e 3e3d dc62 513c a017 723b e8e0 b7bb
00000130: c7de 1c3d fd2d cbbc 606b c7bc 0060 19bc
00000140: f347 43bd 74d0 663c 50b8 47bb f1cc 253d
00000150: 32e8 d83c 5826 9e3b e043 143b 0053 bd39
00000160: cb7f 1abd d152 153d 811d 083d 4063 f9ba
00000170: a40b 593c a89d 82bb a8f9 69bc 3b5f 4bbd
00000180: 7648 9e3c 9199 273d a781 033d 14ef 5b3c
00000190: 198f 2f3d f8ee 2bbc 00f4 e5bc 8072 3ebd
000001a0: a9ee 0c3d 0028 faba bfe6 45bd 9973 1c3d
000001b0: b4df 6f3c 18de 153c 7bb5 2bbd dc2a 773c
000001c0: bd74 313d a873 90bb 08d9 14bd 1481 8cbc
000001d0: 59c9 043d 6a2d d43c dd65 b1bc d4d6 0e3c
-0.03757145 0.011646975 -0.008235622 0.0005790666 0.014538791 0.008775752 -0.0420246 0.039457712
-0.03765307 -0.032849062 0.03783265 0.04787266 0.017076347 0.018671792 -0.049569525 0.02954087
-0.020002825 0.023049552 0.0012496486 -0.0187809 -0.016526382 -0.0075190775 0.0215257 -0.026800234
-0.0036463551 0.021211404 -0.04819989 0.047653023 -0.013797261 0.04588152 -0.009255566 -0.015734337
0.022072617 0.006920181 -0.040016852 0.007777553 -0.014131915 -0.039512396 -0.04671913 -0.028540565
-0.008772153 0.021211442 0.025160167 0.012237031 0.025160339 -0.027176106 -0.016080309 0.049455356
-0.031484477 0.02612831 0.0335675 -0.02548483 -0.027117044 -0.03634424 -0.020777518 0.034356657
0.034892295 -0.009371191 0.025928404 -0.005141668 -0.027492309 -0.013375163 0.04375488 0.046003807
-0.030469311 -0.0487544 0.019072536 0.02261668 -0.0051286593 0.024550144 -0.02308914 -0.005882703
0.046491917 0.012779918 0.003694035 -0.0056115277 0.038298395 -0.024802202 -0.024343193 -0.009361267
-0.047676038 0.014087785 -0.003047485 0.04047865 0.026477907 0.0048263483 0.0022623464 0.0003611073
-0.03771953 0.036455933 0.033231262 -0.0019026771 0.013247404 -0.0039860792 -0.014280714 -0.049651366
0.019321661 0.040917937 0.032106068 0.0134237 0.042861078 -0.010493986 -0.02807045 -0.046495914
0.03440729 -0.0019085407 -0.04831576 0.03819618 0.014640737 0.00914719 -0.04192112 0.015085902
0.04332422 -0.0044083185 -0.03633979 -0.017151393 0.032418583 0.025900561 -0.021655018 0.008718211

fc2.weight f4 [84, 120]
00000000: f7b3 a2bd e0d3 b13d 48dc 743c 4031 b33d
00000010: 7898 19bc d06f cbbb 106a 5abc 5dd0 8abd
00000020: a016 6c3b 7814 7a3d 682c 6dbc 9807 2bbd
00000030: 3e34 4ebd 6066 d83b 6229 b63d bb95 53bd
00000040: 60fe 563d 3894 103c 62c3 b2bd 50c4 3c3d
00000050: 08bd a83d 20fa 83bc 2432 fe3c 3699 91bd
00000060: 30b3 d8bb 78c7 483d 982e 153c 56d7 a23d
00000070: 64de a63d 905e 44bc 00c2 bfbc 5f69 b3bd
00000080: 17e2 94bd 6a58 92bd bc36 80bd f73b abbd
00000090: 4cb9 9e3d 281b 933d 2833 533d 1079 cb3b
000000a0: 8093 5d3d 2877 213c 048f 8abc 44f5 70bd
000000b0: 702f 463d adfc a4bd 14f7 ed3c 938c 5fbd
000000c0: d903 2ebd 6467 663d 0010 143a be75 3cbd
000000d0: a03a 513d 3e1f 2dbd 6026 3dbc 4c07 e03c
000000e0: 76b9 883d ecff 553d c00e 44bb ba2d f1bc
000000f0: f0f7 aebb 0485 5c3d 689c 443c 6c0b 023d
00000100: 9c24 8e3c a015 453d 9c40 c6bc 00ab a6bc
00000110: d091 363c ec3b 88bd c4c0 a23d c49a c7bc
00000120: a4b7 b73d c40e e33c 6432 a23c 280a 1d3c
00000130: 607d bebb db65 b1bd b050 70bc e490 a53d
00000140: 607f 99bc 88d0 063d 0409 0d3d bcae 773d
00000150: 1238 9abd 8ca6 923c d200 30bd d43c 383d
00000160: 5677 b13d 6035 b23b a80d 2fbd d921 35bd
00000170: 6854 6abc a7fe 81bd 0842 a33c 80ca a73a
00000180: 3a65 98bd 4651 ba3d 58e1 c93c 7c03 43bd
00000190: b082 ecbc 6a8a af3d 3b94 55bd c0a5 85bb
000001a0: 7a84 eebc 70c6 db3b a8c6 f43c 1a34 49bd
000001b0: 603c aebc 74e5 7cbd 60f2 afbd 7cde b43d
000001c0: 19ac b3bd 8c9f 1e3d 60b3 a1bd d706 86bd
000001d0: f013 d53b ecfe 20bd e2e6 f9bc 2487 ab3d
000001e0: 9811 a3bc 786a 8f3d 76bc 85bd 3cc4 723d
000001f0: a209 3bbd fcb1 a83c 00e0 acba 488a 7e3d
00000200: 90f4 5abc 28e4 5cbc a410 763d 65cf b1bd
00000210: aa24 873d 0017 013d 54c0 433d 18dc 6b3d
00000220: 5c53 b63c 6cb5 d2bc b20d 0a3d f8a2 77bd
00000230: ec6e 9a3d 905e cbbc 8c91 7c3d b092 98bc
00000240: 55af 15bd 1645 93bd c00a 46bd 2479 b33d
00000250: 18eb 6d3d 986a b3bd 70a0 aabd 7630 41bd
00000260: 87cd 6abd 3497 d6bc e442 9dbc a45e 163d
00000270: d07b 803d 5040 3a3c 2ac0 7cbd f836 9d3c
00000280: e8f4 5e3d b66d fabc 2083 a9bc c144 97bd
00000290: 7ebf 91bd 8bf8 3cbd 8815 393d 4dec 6dbd
000002a0: 3a60 8a3d 0245 96bd 29b4 abbd 8411 02bd
000002b0: 2865 aa3d 406c 553c a478 ac3d 945a b43d
000002c0: 8cec b73d 0ccd 173d f9be 11bd 4088 d63b
000002d0: 6621 af3d cc59 d73c 603e 22bb 6854 593d
000002e0: 74a7 633d f0a5 b2bb 20eb 4c3d ba6e 05bd
000002f0: 206a b13d 6016 6bbc 141f f13c 407b c53b
00000300: c21e 833d 8089 e1ba fcc8 f33c 182c 97bc
00000310: 5850 483c 7277 f6bc 98ff cfbc 323a 9a3d
00000320: fcf3 adbc 40ae 963c ac38 283d f00c f2bb
00000330: d01e ccbc b4a2 5d3d 7c62 243d 8c11 623d
00000340: 7e19 a8bd b4be 2c3d 6024 2b3c bc11 6f3d
00000350: a3e3 1bbd 2aaa a33d a789 0ebd 5081 f0bc
00000360: 70de 993d 0865 663d 32cb 95bd e4a2 273d
00000370: 248f 93bd b8e0 263c 494d 49bd 74db 503d
00000380: ac5f 713d 30cc 31bd 2ca7 c9bc a023 dabc
00000390: 9076 56bc a0b6 d0bb b8bf 333d 80db 7abb
000003a0: 3a5c af3d 3628 903d fa6b f2bc 734a 15bd
000003b0: 6fca 5cbd 5457 af3c 205b 703d a051 ffbc
000003c0: b014 dbbb 008c d3bc 386f 09bc 7c81 933d
000003d0: c0a8 ddba 1c5e 1b3d 0041 f8bb 900c 4cbc
000003e0: af76 90bd 9082 863c f830 a6bd 3245 ba3d
000003f0: 3c52 d9bc 00bd 03ba 704d 683c 54ae 443d
-0.07944482 0.0868299 0.014945097 0.08749628 -0.00937473 -0.0062083974 -0.013330951 -0.067780234
0.0036024228 0.061054677 -0.014475919 -0.04175529 -0.05034279 0.006604001 0.08894612 -0.051656466
0.052488685 0.008824401 -0.087286726 0.046085656 0.0823918 -0.01611048 0.031029768 -0.07109301
-0.0066131577 0.049018353 0.009105347 0.07951228 0.081478864 -0.011985436 -0.023407936 -0.08760332
-0.07269686 -0.0714577 -0.0626044 -0.08361047 0.07750186 0.07182914 0.05156246 0.0062095
0.054095745 0.009855069 -0.016913898 -0.058827654 0.048385084 -0.080560066 0.02904848 -0.05457742
-0.04248414 0.056250945 0.0005648136 -0.046010725 0.0510813 -0.042266123 -0.011544794 0.02734723
0.06675999 0.05224602 -0.0029916018 -0.02944075 -0.005339615 0.05383779 0.012000181 0.031749174
0.017351441 0.048116326 -0.02420073 -0.020345211 0.011143163 -0.06652054 0.079469234 -0.02436579
0.089705735 0.027717002 0.019799419 0.009584941 -0.0058132857 -0.086620055 -0.014667675 0.08084276
-0.018737495 0.032913715 0.034432426 0.060469374 -0.07530226 0.017901681 -0.042969532 0.044979885
0.0866534 0.0054384917 -0.042737633 -0.044221733 -0.014302351 -0.06347399 0.019928947 0.0012801439
-0.074411824 0.09097533 0.024643585 -0.047610745 -0.02887091 0.08571322 -0.052143317 -0.004078597
-0.029115904 0.006707005 0.029879883 -0.049121954 -0.021269023 -0.06174226 -0.08591151 0.08831498
-0.087730594 0.038726375 -0.07895541 -0.06544273 0.006502621 -0.039305612 -0.030505601 0.083753854
-0.01990585 0.07002729 -0.06530087 0.059269175 -0.045663483 0.020592682 -0.0013189316 0.062143594
-0.013363972 -0.013482131 0.060074463 -0.086821355 0.0659879 0.031516075 0.04779084 0.057582945
0.022256546 -0.025721274 0.033704467 -0.060458153 0.07540688 -0.024825364 0.06166224 -0.018624634
-0.036544163 -0.071909115 -0.048350096 0.0876334 0.05808553 -0.087605655 -0.08331382 -0.047165357
-0.057324912 -0.026195146 -0.019196935 0.03671135 0.06273615 0.011367872 -0.0617067 0.01919125
0.05443278 -0.030569892 -0.020692408 -0.07386161 -0.07116602 -0.046135467 0.04518655 -0.058086682
0.06756635 -0.07337381 -0.08383972 -0.031754985 0.08320075 0.013026297 0.08421448 0.08806339
0.089806646 0.037060782 -0.035582516 0.006547004 0.08551292 0.026287936 -0.0024756417 0.05305901
0.055579618 -0.00545191 0.05002892 -0.0325763 0.0866282 -0.014348596 0.029433765 0.0060266554
0.06402351 -0.0017207116 0.029758923 -0.018453643 0.012226187 -0.030086253 -0.025390431 0.07530631
-0.021234505 0.018393636 0.04106967 -0.007386796 -0.024917036 0.054110244 0.040132985 0.055192515
-0.08207987 0.042174056 0.010445684 0.058366522 -0.03805889 0.079914406 -0.034799244 -0.029358536
0.0751313 0.056248695 -0.07314147 0.04092683 -0.07205036 0.010185413 -0.04914597 0.050990537
0.05892913 -0.04340762 -0.024615847 -0.026628315 -0.013089791 -0.006369427 0.04388401 -0.0038277805
0.08562513 0.0703892 -0.029592503 -0.036447953 -0.053903993 0.021403946 0.058680654 -0.031166852
-0.0066858158 -0.025823593 -0.008388333 0.072024316 -0.0016911253 0.037931547 -0.007576108 -0.012454167
-0.07053887 0.016419679 -0.08114809 0.09095229 -0.02652847 -0.00050254166 0.014178619 0.048017815

fc2.bias f4 [84]
00000000: 40f5 e1ba e41f 733d 8016 36bb 62b6 ab3d
00000010: 70c8 b4bc 1cf3 93bc f926 5fbd f8ad 8cbc
00000020: 9ceb bb3c b9d8 4bbd 4093 913d 0c08 a7bd
00000030: 693c 91bd 84ae 933d 9079 b33d a760 91bd
00000040: 204c 6e3d 6943 39bd 4c80 dbbc a216 af3d
00000050: 58c2 4e3d 9cb8 d7bc e03c 003b f255 8fbd
00000060: dc84 f7bc 72c3 033d c0e0 a3ba 1c47 613d
00000070: 24fd 153d cabe a13d e869 97bd f0cb 643d
00000080: 8683 7abd 3809 5ebc c4ea 133d 88d5 8abd
00000090: 80e1 103a e2dc 033d e11d 47bd f0a8 023d
000000a0: 1836 cd3c 1e2f 003d ca11 873d 78b4 a9bd
000000b0: b043 ee3c f46e e63c 4edd b23d a8e5 2e3d
000000c0: 8e6c 8a3d 3c0e eb3c 207f 67bc 40a5 863b
000000d0: 3cae 78bd 108d 9b3d a1d8 99bd acc3 b63d
000000e0: 3192 afbd ff8a 84bd 8f9e b7bd 1127 86bd
000000f0: 4242 67bd 2776 51bd 9925 acbd 420f 46bd
00000100: e893 4c3d 9f5e 31bd 1601 a5bd ec54 dcbc
00000110: 1884 e5bc 8091 053c 203c b63c 586d c6bc
00000120: eec5 a63d 40a4 b2bd 4857 02bd 68cb 0ebc
00000130: 76ed ab3d 026b f9bc dc79 90bd d84e 533d
00000140: 4f23 b5bd 3076 a23c a4ed 8e3d f2c1 8dbd
-0.0017239228 0.059356585 -0.0027784407 0.08384396 -0.022068232 -0.01806026 -0.054480527 -0.017172799
0.022939496 -0.04976723 0.07108164 -0.08155832 -0.070916004 0.072110206 0.087634206 -0.07098513
0.058178067 -0.045230303 -0.026794575 0.08549239 0.05047831 -0.026333146 0.0019567534 -0.06998815
-0.03021472 0.032168813 -0.0012502894 0.054999456 0.036618367 0.07897718 -0.07393247 0.055858552
-0.061160587 -0.013552003 0.03611256 -0.06779009 0.0005526766 0.032193072 -0.04861248 0.031899393
0.025050208 0.031294934 0.0659519 -0.08286375 0.02908501 0.028129078 0.08733617 0.042699486
0.067589864 0.02869331 -0.01412943 0.004109055 -0.060713038 0.07595265 -0.07512022 0.0892404
-0.08572806 -0.06471824 -0.089657895 -0.0655042 -0.056459673 -0.05113807 -0.08405609 -0.048354395
0.049945742 -0.04330313 -0.08056848 -0.026895963 -0.028017089 0.008152366 0.022245467 -0.024222061
0.08143221 -0.087227345 -0.03182152 -0.008715488 0.083949015 -0.030446533 -0.07054493 0.051588863
-0.08844625 0.019831747 0.0697892 -0.06921758

fc3.weight f4 [10, 84]
00000000: b333 dfbd 30cd e03b 60ef 1c3c de23 56bd
00000010: 6016 c23b bcf5 edbc b039 d23b 0007 333c
00000020: 8448 dcbc fa0e b2bd 893a ce3d 8f38 9b3d
00000030: 565e d2bd e31a bf3d a289 403d 9438 cebc
00000040: a217 cebd 8980 9f3d 58f1 8abd 17d1 c13d
00000050: 4f31 bc3d 3af3 babd a9b6 d33d ee32 503d
00000060: a365 de3d 9891 493c 1821 acbd 0a27 133d
00000070: 266a 4b3d 7207 32bd 0b81 c8bd 7b54 813d
00000080: cca5 42bd e366 af3d 52ed 2c3d ab65 ca3d
00000090: bdf6 b93d 1b62 db3d f68c cfbd f053 053c
000000a0: bcac 97bc 29a1 933d 8b65 a13d bcfa de3c
000000b0: e808 c6bd 2851 61bc e4f1 fcbc af80 6ebd
000000c0: 1082 74bc 14c2 9ebd 10d5 f83b af1f d23d
000000d0: b022 a83b 78a0 1fbc 73fb b63d d8f7 1bbd
000000e0: 4089 4b3c 60a7 88bb ef33 c0bd 74f7 933c
000000f0: d011 83bb 4416 d8bc 6e4b 60bd ab30 803d
00000100: 95ab dd3d 0a21 c9bd 793a c53d 0368 73bd
00000110: 606f f93b a700 b23d a852 61bd d083 28bc
00000120: 168d c8bd 1639 08bd a415 03bd 50c5 96bc
00000130: 1af3 003d 223f 573d e4c2 8e3c 028d 773d
00000140: 2325 803d 907d 44bc b5b8 d63d 4095 99ba
00000150: 00cd c739 34ce 84bd a121 873d e0c3 92bb
00000160: 58ef bcbd aaa0 313d 8047 c4bb 7453 5ebd
00000170: a22e 5f3d 7fb5 883d 5e6a 85bd 33ff 64bd
00000180: 83c3 cebd 51f8 983d c68b 36bd 5cd8 a53c
00000190: 4291 143d f065 923b 76f8 1d3d 58c0 bebc
000001a0: acbe 83bc b888 1bbd cabf 583d baea 603d
000001b0: 28f5 f6bc ffca b23d c4e0 e73c c021 3f3b
000001c0: 5846 6ebc 188d dbbc 853a be3d 78c9 6f3c
000001d0: f09f 423c 6e73 5c3d c0dc 09bd 73b6 99bd
000001e0: d34b 9f3d dfc9 b83d 869d 653d 300b 23bc
000001f0: dc84 e6bc c930 b53d 4edd 85bd be7b a6bd
00000200: 99c3 c53d cae1 c5bd 5353 46bd 92b8 8abd
00000210: 2005 90bd 05b7 c83d 89cd 9d3d 58b4 07bd
00000220: 49c1 b83d a065 03bc 48a8 dfbc e033 0bbb
00000230: 468d c2bd 1141 c63d 568e 07bd f036 5ebd
00000240: 0b6b cd3d bf4e 6cbd 1669 a3bd 7f44 c7bd
00000250: 8683 7e3d 617f 8d3d f077 28bc 6318 c03d
00000260: f8d3 d8bd 9417 8abc abe2 c73d 74ea d63c
00000270: 601e f33b 40d8 863a b06e 8a3b 3cc0 c03c
00000280: 403e 8bbd 00f4 c8bc f0fa d8bb 56cc 533d
00000290: 6b79 ad3d b8ce 383c 5588 62bd ec9b 23bd
000002a0: 23db 5dbd 38b7 dbbd 4195 863d e793 61bd
000002b0: 888f 52bc 00db 87bb e005 143c a28d 293d
000002c0: 304e 33bc c7dd 9c3d 4f9d d1bd bf28 923d
000002d0: d23a 333d 97c3 9fbd ed34 cf3d 94b7 d63c
000002e0: eb25 a0bd 3ede 06bd ad0e 933d cef3 783d
000002f0: 27cd 953d fc8c 02bd aad9 16bd 7458 ab3c
00000300: 1e14 1d3d d6d0 acbd b838 8ebd e859 cebd
00000310: 1cd4 d9bc ca8a 4c3d c408 d7bd 464a b5bd
00000320: 67a2 c33d 9f5f ba3d 909a 503c c092 0a3c
00000330: 3b49 df3d c0b2 72bb dbb4 af3d 0c60 b4bd
00000340: 1471 92bd 1b6a 8d3d 8809 56bd b651 9cbd
00000350: e7ec 8d3d b70c 873d dc03 8fbd 24d6 5ebd
00000360: 4104 d43d 775f ca3d c0bd d6bc 7cc2 9e3c
00000370: 23fc a6bd 4274 a0bd 3089 c8bb f04f fc3b
00000380: 7c1d 933c 50f8 f2bb 8a13 76bd e940 db3d
00000390: 8722 a33d 5e56 38bd 0cdb bebd 1689 43bd
000003a0: f732 d6bd 1054 9fbc 2dc5 3fbd 65b1 68bd
000003b0: 2ab0 4ebd 7f4d 9c3d 1240 1a3d a0ad 17bc
000003c0: 50a0 5fbc 0191 a6bd 02ee ccbd 2c98 a0bd
000003d0: 0d70 c93d 3c89 c1bd a01e 243b 4c70 a8bd
000003e0: 534b a53d 4687 a6bd 8023 1cbd c04a adbc
000003f0: f928 a93d 60eb 243c 0ed3 abbd 732f 62bd
-0.10898533 0.0068603978 0.009578556 -0.0522803 0.0059230775 -0.02904784 0.0064155683 0.010926962
-0.026890047 -0.08694263 0.100697584 0.07579147 -0.102718994 0.093313 0.047006257 -0.025173463
-0.10063101 0.07788188 -0.06784314 0.09463709 0.09189092 -0.09128423 0.10337574 0.05082982
0.108592294 0.012302779 -0.0840475 0.035925902 0.049661778 -0.04346413 -0.09790238 0.063149415
-0.047521397 0.08564546 0.042218514 0.09882673 0.09080265 0.107120715 -0.10134308 0.008137688
-0.018514983 0.07208473 0.07880696 0.027219169 -0.096696675 -0.013752259 -0.030877061 -0.05822819
-0.014923587 -0.07751861 0.0075937584 0.102599494 0.005131088 -0.009742849 0.08934679 -0.03807816
0.01242286 -0.0041703433 -0.093849055 0.01806233 -0.003999926 -0.026377805 -0.054759435 0.06259283
0.10823742 -0.09820755 0.096302934 -0.059425365 0.007612154 0.08691531 -0.055010468 -0.010285333
-0.09792535 -0.033257566 -0.03200306 -0.018404633 0.03148184 0.052550443 0.017426915 0.06043721
0.06257083 -0.011992827 0.10484449 -0.0011717454 0.00038108975 -0.064846426 0.06598211 -0.0044789165
-0.09225339 0.04336611 -0.005989969 -0.054278806 0.054487832 0.06675243 -0.065144286 -0.05590744
-0.10095885 0.074692376 -0.044566892 0.02024477 0.03627134 0.0044677183 0.03856703 -0.023285076
-0.01608213 -0.037972182 0.05291728 0.054911353 -0.030146196 0.08730125 0.028305419 0.0029164404
-0.014543138 -0.026800677 0.092885055 0.014635436 0.011878952 0.05382102 -0.03365779 -0.075055026
0.07778134 0.09022879 0.05605843 -0.009951398 -0.028139524 0.08847196 -0.06536351 -0.08129071
0.09656448 -0.096622065 -0.048419308 -0.06773485 -0.070322275 0.09800533 0.07705218 -0.033130974
0.09021241 -0.008019835 -0.027301922 -0.0021240637 -0.09499602 0.09680379 -0.033094727 -0.05425161
0.100301825 -0.057692286 -0.07979028 -0.097298615 0.06213715 0.06909061 -0.010282502 0.093796514
-0.10587305 -0.016856946 0.0976003 0.026234843 0.0074193925 0.0010287836 0.0042246208 0.023529164
-0.067989826 -0.02453041 -0.006621711 0.05170854 0.08470424 0.011279754 -0.055305798 -0.03994362
-0.054164063 -0.107283056 0.06571437 -0.05507269 -0.012851603 -0.00414598 0.009034604 0.041394837
-0.010943934 0.07659488 -0.10235082 0.07136678 0.043757267 -0.07800978 0.10117517 0.026210584
-0.07819732 -0.03292679 0.071805336 0.060779385 0.0731452 -0.031872734 -0.036828674 0.020916201
0.038349263 -0.0843827 -0.06944412 -0.10075742 -0.0265904 0.049937047 -0.10499719 -0.08852057
0.0955246 0.091002695 0.012732163 0.0084578395 0.109026395 -0.0037032813 0.08579417 -0.08807382
-0.07150474 0.06905004 -0.052255183 -0.076327726 0.06929951 0.06594222 -0.06983158 -0.05440344
0.10352374 0.0988149 -0.026213527 0.019379847 -0.0815356 -0.078346744 -0.0061198696 0.007699959
0.017958395 -0.007414855 -0.060077228 0.1070574 0.0796557 -0.04500424 -0.093191236 -0.047738157
-0.104589395 -0.019449264 -0.0468189 -0.0568098 -0.050460972 0.07631969 0.03765876 -0.009257704
-0.013649061 -0.08133126 -0.10006334 -0.078415245 0.09835825 -0.094500035 0.0025042668 -0.08224544
0.080710076 -0.0813127 -0.038119793 -0.021153808 0.08259768 0.010065883 -0.08389865 -0.055221032

fc3.bias f4 [10]
00000000: 898f d83d 9672 0d3d d640 52bd 6cf8 e2bc
00000010: b0f2 3d3c be38 b1bd c078 a93b 8ef9 a5bd
00000020: 605f 8bbd 003c 52bc
0.10574252 0.034533106 -0.051331364 -0.027706347 0.011593506 -0.08653401 0.005171865 -0.081042394
-0.06805301 -0.012831688
